…
uential . discriminator = Sequential() discriminator.add(Flatten(input_shape=[28,28])) discriminator.add(Dense(150,activation=&#39;relu&#39;)) discriminator.add(Dense(100,activation=&#39;relu&#39;)) # Final output layer discriminator.add(Dense(1,activation=&#39;sigmoid&#39;)) discriminator.compile(loss=&#39;binary_crossentropy&#39;,optimizer=&#39;adam&#39;) . discriminator.summary() . Model: &#34;sequential&#34; _________________________________________________________________ Layer (type) Output Shape Param # ================================================================= flatten (Flatten) (None, 784) 0 _________________________________________________________________ dense (Dense) (None, 150) 117750 _________________________________________________________________ dense_1 (Dense) (None, 100) 15100 _________________________________________________________________ dense_2 (Dense) (None, 1) 101 ================================================================= Total params: 132,951 Trainable params: 132,951 Non-trainable params: 0 _________________________________________________________________ . codings_size = 100 generator = Sequential() generator.add(Dense(100,activation=&#39;relu&#39;,input_shape=[codings_size])) generator.add(Dense(150,activation=&#39;relu&#39;)) generator.add(Dense(784,activation=&#39;relu&#39;)) # Discriminator expects shape of 28x28 generator.add(Reshape([28,28])) # We do not compile the generator GAN = Sequential([generator,discriminator]) . generator.summary() . Model: &#34;sequential_1&#34; _________________________________________________________________ Layer (type) Output Shape Param # ================================================================= dense_3 (Dense) (None, 100) 10100 _________________________________________________________________ dense_4 (Dense) (None, 150) 15150 _________________________________________________________________ dense_5 (Dense) (None, 784) 118384 _________________________________________________________________ reshape (Reshape) (None, 28, 28) 0 ================================================================= Total params: 143,634 Trainable params: 143,634 Non-trainable params: 0 _________________________________________________________________ . GAN.summary() . Model: &#34;sequential_2&#34; _________________________________________________________________ Layer (type) Output Shape Param # ================================================================= sequential_1 (Sequential) (None, 28, 28) 143634 _________________________________________________________________ sequential (Sequential) (None, 1) 132951 ================================================================= Total params: 276,585 Trainable params: 143,634 Non-trainable params: 132,951 _________________________________________________________________ . GAN.layers . [&lt;tensorflow.python.keras.engine.sequential.Sequential at 0x204990c9f98&gt;, &lt;tensorflow.python.keras.engine.sequential.Sequential at 0x20483bcf6a0&gt;] . GAN.layers[1].summary() . Model: &#34;sequential&#34; _________________________________________________________________ Layer (type) Output Shape Param # ================================================================= flatten (Flatten) (None, 784) 0 _________________________________________________________________ dense (Dense) (None, 150) 117750 _________________________________________________________________ dense_1 (Dense) (None, 100) 15100 _________________________________________________________________ dense_2 (Dense) (None, 1) 101 ================================================================= WARNING:tensorflow:Discrepancy between trainable weights and collected trainable weights, did you set `model.trainable` without calling `model.compile` after ? Total params: 265,902 Trainable params: 132,951 Non-trainable params: 132,951 _________________________________________________________________ . discriminator.trainable = F
…
compile(loss=&quot;binary_crossentropy&quot;, optimizer=&quot;adam&quot;) discriminator.trainable = False . GAN.compile(loss=&quot;binary_crossentropy&quot;, optimizer=&quot;adam&quot;) . GAN.layers . [&lt;tensorflow.python.keras.engine.sequential.Sequential at 0x2049bacf240&gt;, &lt;tensorflow.python.keras.engine.sequential.Sequential at 0x2049bb33fd0&gt;] . GAN.summary() . Model: &#34;sequential_5&#34; _________________________________________________________________ Layer (type) Output Shape Param # ================================================================= sequential_3 (Sequential) (None, 28, 28, 1) 840705 _________________________________________________________________ sequential_4 (Sequential) (None, 1) 212865 ================================================================= Total params: 1,053,570 Trainable params: 840,321 Non-trainable params: 213,249 _________________________________________________________________ . GAN.layers[0].summary() . Model: &#34;sequential_3&#34; _________________________________________________________________ Layer (type) Output Shape Param # ================================================================= dense_6 (Dense) (None, 6272) 633472 _________________________________________________________________ reshape_1 (Reshape) (None, 7, 7, 128) 0 _________________________________________________________________ batch_normalization (BatchNo (None, 7, 7, 128) 512 _________________________________________________________________ conv2d_transpose (Conv2DTran (None, 14, 14, 64) 204864 _________________________________________________________________ batch_normalization_1 (Batch (None, 14, 14, 64) 256 _________________________________________________________________ conv2d_transpose_1 (Conv2DTr (None, 28, 28, 1) 1601 ================================================================= Total params: 840,705 Trainable params: 840,321 Non-trainable params: 384 _________________________________________________________________ . batch_size = 32 my_data = only_zeros dataset = tf.data.Dataset.from_tensor_slices(my_data).shuffle(buffer_size=1000) type(dataset) . tensorflow.python.data.ops.dataset_ops.ShuffleDataset . da
…
